docs/BlazeEar_web.onnx (onnx, 527674 bytes, 81 tensors)

model.backbone1.0.weight f4 [24, 3, 5, 5]
0.05138199 0.038122535 0.009148108 0.018996546 0.031028312 0.025470752 -0.0084963245 -0.074921876
-0.057533663 -0.03770512 -0.016907394 -0.09418866 -0.10578137 -0.09914197 -0.056876652 -0.024385963
-0.061683442 -0.06394696 -0.06644448 -0.0272413 0.013476582 -0.010122632 -0.014301803 -0.024460616
-0.019135438 0.04745305 0.028059436 0.005656954 0.02409815 0.03623871 0.026938139 0.008855256
-0.029953064 -0.0061061326 0.0061653247 0.0053743315 -0.017534168 -0.0062932554 0.0033141896 0.02588362
0.0011666687 0.0064455573 0.0252008 0.020918336 0.039615273 0.015084235 0.01763181 0.014685312
0.022809422 0.037626393 -0.002928138 -0.004784151 -0.006233962 0.014337285 0.014911951 -0.003296835
0.0026522025 -0.0049526547 0.019520685 0.015533374 -0.0018061841 -0.01165754 0.018414631 0.01991838
0.022915235 -0.013023852 -0.0017512836 0.024473382 0.008812404 0.015460775 -0.010352276 -0.0109828375
0.0064611654 0.0003750137 0.015021718 -0.009215175 0.06932144 0.17269956 0.1396431 0.018357541
-0.15697445 -0.16735278 0.0975125 0.15752673 0.017418437 -0.21756789 -0.3175659 -0.12542194
0.06450546 0.06297444 -0.013968968 -0.06502865 -0.12344002 -0.040813774 0.04700877 0.07276824
0.072476536 0.015749494 0.025965622 0.07396082 0.00966414 -0.05889652 0.004242831 -0.008076282
-0.031076748 -0.00950907 -0.16055226 -0.041298196 0.026526889 -0.03601183 0.047696147 -0.040828705
-0.085955374 -0.02626285 -0.0050365482 0.07489739 0.13185799 -0.010633917 -0.061198015 -0.010802175
0.024657954 0.06844582 -0.0029282295 -0.013102349 0.010159316 0.077794775 -0.07012117 -0.112878054
-0.09280707 -0.05473752 0.13568072 0.0010819337 -0.04786514 -0.06312575 -0.09317903 0.18159421
0.14556237 -0.0019178232 -0.045398127 -0.04425853 0.06682943 0.21484703 0.08593361 -0.025842154
-0.028045163 -0.079014 0.010522031 -0.029333077 -0.025611982 0.007879018 -0.18837203 -0.1632237
-0.1272897 -0.13496423 -0.10211362 0.026807914 0.20164223 0.1863353 -0.037945103 -0.1758955
0.16186343 0.36885002 0.33050025 -0.022545572 -0.24840243 0.0946615 0.23361288 0.20942079
-0.06334472 -0.20775409 0.014435173 0.07633245 0.07702341 -0.046879057 -0.106681384 0.043189928
0.10562075 0.12190659 0.17786813 0.2319066 -0.1376074 -0.20927615 -0.14273033 0.031255413
0.18906422 -0.25232434 -0.5071493 -0.33300617 -0.044441234 0.19778019 -0.18838222 -0.34703985
-0.26003477 -0.02125089 0.20186913 -0.106565334 -0.10009702 -0.07416871 0.016671686 0.11496395
0.08701749 0.08655294 -0.014816639 -0.053435806 -0.1047857 0.122961394 0.005438256 -0.051608786
-0.020837672 0.013704407 0.101158254 -0.09073075 -0.08959851 0.023766613 0.06618069 0.1446703
0.02167751 0.014551243 0.05697914 0.0098089045 0.07325054 0.077163026 0.054602854 0.029566484
-0.050464775 0.06270457 0.06898904 0.027281182 -0.054991048 -0.10323458 0.065631926 0.06179466
0.03740516 -0.046332233 -0.07640162 0.040956154 0.030973163 -0.022565017 -0.06498926 -0.048315305
0.008841767 0.0037290002 -0.0013611199 0.025917927 -0.028162554 0.003144043 0.006650063 0.016800173
0.02618307 -0.02137645 0.046937108 0.060999434 0.01144405 -0.08535599 -0.12513217 0.069284186
00000000: ec75 523d 6026 1c3d f2e1 153c a59e 9b3c
00000010: 162f fe3c 0aa8 d03c 2b34 0bbc a470 99bd
00000020: 6ba8 6bbd af70 1abd 6081 8abc fce5 c0bd
00000030: e7a3 d8bd f20a cbbd 7ef7 68bd 12c5 c7bc
00000040: c7a7 7cbd a0f6 82bd 0b14 88bd 2629 dfbc
00000050: e2cc 5c3c 65d9 25bc 1c52 6abc a161 c8bc
00000060: ecc1 9cbc 215e 423d e7dc e53c f85d b93b
00000070: 7c69 c53c 0b6f 143d 5fad dc3c a315 113c
00000080: 2160 f5bc f415 c8bb 7e06 ca3b 291b b03b
00000090: d1a3 8fbc a737 cebb e032 593b e309 d43c
000000a0: e8ea 983a 4135 d33b e871 ce3c ee5c ab3c
000000b0: a043 223d de23 773c 9670 903c aa9a 703c
000000c0: d3da ba3c 221e 1a3d 01e6 3fbb 5ec4 9cbb
000000d0: 4346 ccbb efe6 6a3c 4151 743c b70f 58bb
000000e0: 93d0 2d3b e149 a2bb d8e9 9f3c b17f 7e3c
000000f0: 7bbd ecba 44ff 3ebc 48da 963c df2b a33c
00000100: bbb8 bb3c ff61 55bc 548b e5ba 677c c83c
00000110: e761 103c 314f 7d3c 989c 29bc 5cf1 33bc
00000120: 2fb8 d33b 7d9d c439 a71d 763c 3ffb 16bc
00000130: 66f8 8d3d 27d8 303e 9afe 0e3e 8e62 963c
00000140: e9bd 20be 875e 2bbe a2b4 c73d b04e 213e
00000150: 1cb1 8e3c 1eca 5ebe ff97 a2be 9c6e 00be
00000160: 701b 843d bef8 803d 19de 64bc be2d 85bd
00000170: 1fce fcbd 582c 27bd 458c 403d 8407 953d
00000180: 946e 943d 1505 813c dbb5 d43c c578 973d
00000190: 5756 1e3c 7a3d 71bd 7207 8b3b 6252 04bc
000001a0: aa94 febc eecb 1bbc d067 24be 4c28 29bd
000001b0: eb4e d93c 2481 13bd 095d 433d 003c 27bd
000001c0: 5f09 b0bd 3025 d7bc a109 a5bb ce63 993d
000001d0: c805 073e e139 2ebc c5aa 7abd 9bfb 30bc
000001e0: 7aff c93c 522d 8c3d 8ae7 3fbb 3cab 56bc
000001f0: 4273 263c de52 9f3d b09b 8fbd 9c2c e7bd
00000200: a211 bebd 7334 60bd e3ef 0a3e accf 8d3a
00000210: 3d0e 44bd 1348 81bd a6d4 bebd d5f3 393e
00000220: 4d0e 153e 785f fbba 63f3 39bd 6f48 35bd
00000230: dedd 883d dc00 5c3e f6fd af3d edb2 d3bc
00000240: f8be e5bc 18d2 a1bd 9964 2c3c ec4b f0bc
00000250: 38d0 d1bc ff16 013c 99e4 40be 1d24 27be
00000260: 3b58 02be 1034 0abe f220 d1bd 459c db3c
00000270: 4d7b 4e3e aece 3e3e 536c 1bbd f31d 34be
00000280: 87bf 253e e9d9 bc3e 5437 a93e 7eb1 b8bc
00000290: 355d 7ebe e3dd c13d 3738 6f3e 6772 563e
000002a0: e0ba 81bd 7dbd 54be 8181 6c3c 3054 9c3d
000002b0: 73be 9d3d 4104 40bd c57b dabd ece7 303d
000002c0: b14f d83d 2aaa f93d 1023 363e ec78 6d3e
000002d0: f4e8 0cbe 7d4c 56be e627 12be ad05 003d
000002e0: 0d9a 413e a830 81be 89d4 01bf c97f aabe
000002f0: 0308 36bd e486 4a3e 45e7 40be 35af b1be
00000300: 4723 85be 5916 aebc c8b6 4e3e ed3e dabd
00000310: abff ccbd c4e5 97bd 0f93 883c 3872 eb3d
00000320: 3a36 b23d ab42 b13d 7dc1 72bc 81df 5abd
00000330: e399 d6bd 2fd3 fb3d 6633 b23b bc63 53bd
00000340: c4b3 aabc 7388 603c 0f2c cf3d 0bd1 b9bd
00000350: 6c7f b7bd 33b2 c23c be89 873d 7324 143e
00000360: 0995 b13c 5668 6e3c f562 693d 87b5 203c
00000370: 6104 963d a607 9e3d 3ea7 5f3d 6935 f23c
00000380: 27b4 4ebd 416b 803d 204a 8d3d c97c df3c
00000390: 4b3e 61bd a76c d3bd 086a 863d 661c 7d3d
000003a0: 2736 193d dec6 3dbd 7478 9cbd a4c1 273d
000003b0: 6ebb fd3c 45da b8bc 1719 85bd 45e6 45bd
000003c0: 0fdd 103c 3e62 743b 9b67 b2ba d551 d43c
000003d0: 28b5 e6bc 4a0c 4e3b c6e8 d93b 84a0 893c
000003e0: e17d d63c aa1d afbc 2041 403d 8bda 793d
000003f0: d37f 3b3c 1fcf aebd a622 00be dee4 8d3d

model.backbone1.0.bias f4 [24]
0.12546998 0.14295036 0.31204832 0.09768585 -0.99964046 0.23084249 0.19774938 -0.097664386
-9.680646e-05 -1.0686809 0.15252401 0.47676077 1.0508596 -8.5023734e-05 0.00019138717 0.24339192
0.27495557 0.06745784 -0.15168852 0.41336152 -0.024815796 -0.00011386129 -0.6358616 0.3329401
00000000: 347b 003e 9461 123e ccc4 9f3e 850f c83d
00000010: 70e8 7fbf f961 6c3e d07e 4a3e 4404 c8bd
00000020: 9304 cbb8 89ca 88bf 412f 1c3e fd19 f43e
00000030: 9182 863f c54e b2b8 1aaf 4839 bb3b 793e
00000040: fac6 8c3e 5627 8a3d 3c54 1bbe 1fa4 d33e
00000050: 7f4a cbbc d1c8 eeb8 d3c7 22bf 2077 aa3e

model.backbone1.2.convs.0.weight f4 [24, 1, 3, 3]
-0.19495313 -0.8486904 -1.0228615 -0.22484982 -0.5060591 -0.81759953 0.5463728 0.30481896
-0.7330155 0.41838863 -1.6035101 -0.9434905 0.18015932 1.6437454 -0.6747025 0.12735406
0.57635283 0.22149543 0.9978327 -1.3672286 -0.6423727 0.8500371 -0.8358177 -0.47725624
0.020198988 0.97868323 0.5747406 0.07099453 -0.050040178 -0.34734613 -2.3822393 -1.3305477
0.38396192 -1.4867706 -0.5678988 -0.022575611 -0.010386616 1.007058 -0.14290139 0.28263038
0.3619036 1.3451548 0.06432975 -1.3620567 -0.82700604 -0.1265067 0.010132229 0.1341194
2.1801162 -2.1894715 0.052585706 -0.17973088 0.14269833 -0.08825311 1.9372836 0.26183015
-0.28287467 0.8561845 -1.72046 -1.03053 -0.09351048 -0.33390373 -0.265553 -0.5035169
-0.0142359035 -0.09076738 -2.5628777 1.3979702 0.926401 -0.73670965 -0.5510715 -0.1991639
0.07316187 2.8632126 0.94909656 -0.053038612 1.6321435 0.19384778 -0.12132446 -0.05927734
-0.030058105 0.38619196 0.6617267 0.682946 -0.61648554 -4.1433764 -0.7532156 -0.110794805
-0.3817004 -0.17931533 -0.20777796 -1.3535128 0.13508436 -0.9106777 -1.4807769 -0.072458565
-0.010539506 -0.04255443 -0.05838323 0.12001209 0.4975364 0.003791981 0.5348696 -2.4098282
0.42794058 0.013767515 0.39946693 0.1759744 0.6051557 -1.1030496 0.7499339 -0.1955208
-2.5786552 0.11523694 0.48743546 0.5452429 0.7119189 -0.032133464 1.0722598 -0.24304222
-0.09058966 1.9298882 0.28198013 -0.11946456 -0.21310738 -0.06839496 0.7514231 1.0902681
-0.7184772 0.79264146 0.27892074 -1.6391184 -0.82985234 -0.9148041 -0.17887327 0.55747604
-0.46516448 -0.9646579 -0.54374075 -1.7060963 0.09941488 1.0699575 0.7557397 0.585237
0.6185345 1.9822321 -0.5254477 0.6679978 1.4441332 0.15479818 -0.7771061 -0.35470548
-0.61722094 -0.066513345 -0.3185078 -0.9271541 0.69448483 -2.52722 2.167903 -0.09366285
-0.89693266 -0.66060954 0.45438808 -0.09268947 0.45317316 0.2497499 -1.4913195 -0.760226
-0.037050452 -0.9284194 -0.90538347 -0.29936898 -1.2682201 -0.966488 0.3065184 -0.33970135
-0.6763042 0.82168096 1.9200952 0.8318583 0.25204173 1.8250576 0.22438428 -0.13347714
-0.458364 0.26273963 0.19102971 0.24203518 0.119054034 -0.1565035 -1.4556353 -0.33676445
-0.5073586 -3.0439208 -0.31311888 0.23542245 -0.0129310265 0.05309108 -0.17323019 0.45793697
-0.46390647 -0.5620951 3.2298245 0.15220067 -0.248927 -0.2998263 -0.70823693 0.28208438
1.3285552 -0.888291 0.4150382 -2.211863 -0.5120429 0.14766197 0.05350367 -0.010482516
00000000: cba1 47be c643 59bf 20ed 82bf 083f 66be
00000010: 178d 01bf 344e 51bf 16df 0b3f 3b11 9c3e
00000020: e7a6 3bbf 0937 d63e d23f cdbf 9888 71bf
00000030: af7b 383e 4066 d23f 4eb9 2cbf 1a69 023e
00000040: dc8b 133f b3cf 623e f771 7f3f 5901 afbf
00000050: 8a72 24bf 089c 593f 26f8 55bf ee5a f4be
00000060: 5978 a53c fc8a 7a3f 3322 133f 9565 913d
00000070: eef6 4cbd 5ad7 b1be 9c76 18c0 634f aabf
00000080: a896 c43e 804e bebf d161 11bf 7df0 b8bc
00000090: a02c 2abc 47e7 803f be54 12be eeb4 903e
000000a0: 6e4b b93e 082e ac3f 51bf 833d e057 aebf
000000b0: abb6 53bf f98a 01be a601 263c 9956 093e
000000c0: 0687 0b40 4d20 0cc0 1c64 573d 5f0b 38be
000000d0: 831f 123e 0cbe b4bd e9f8 f73f 9a0e 863e
000000e0: f3d4 90be e82e 5b3f 0938 dcbf 68e8 83bf
000000f0: 6c82 bfbd 6ef5 aabe 90f6 87be 7ce6 00bf
00000100: b53d 69bc 40e4 b9bd 3006 24c0 b0f0 b23f
00000110: 9e28 6d3f 0199 3cbf 0613 0dbf 9ff1 4bbe
00000120: e4d5 953d e03e 3740 fef7 723f 043f 59bd
00000130: 14ea d03f 0880 463e f578 f8bd cccc 72bd
00000140: 6a3c f6bc f4ba c53e ec66 293f 8dd5 2e3f
00000150: ffd1 1dbf 8a96 84c0 bdd2 40bf 63e8 e2bd
00000160: 3c6e c3be 709e 37be bfc3 54be e83f adbf
00000170: 8e53 0a3e 2c22 69bf 198a bdbf 2865 94bd
00000180: e4ad 2cbc 8e4d 2ebd 4123 6fbd e6c8 f53d
00000190: 17bd fe3e e282 783b 37ed 083f a03a 1ac0
000001a0: 071b db3e 2591 613c ee86 cc3e a232 343e
000001b0: 7ceb 1a3f bb30 8dbf abfb 3f3f 9b36 48be
000001c0: b008 25c0 5801 ec3d 2491 f93e 0a95 0b3f
000001d0: 5140 363f 619e 03bd cf3f 893f 0fe0 78be
000001e0: 1287 b9bd 9406 f73f b35f 903e d6a9 f4bd
000001f0: d238 5abe a812 8cbd 445d 403f e88d 8b3f
00000200: 1fee 37bf 8dea 4a3f b3ce 8e3e a2ce d1bf
00000210: 3471 54bf 9a30 6abf 8e2a 37be c0b6 0e3f
00000220: 0a2a eebe d2f3 76bf 9832 0bbf 5d61 dabf
00000230: 079a cb3d 5ef4 883f 2878 413f 18d2 153f
00000240: 4758 1e3f c8b9 fd3f be83 06bf e701 2b3f
00000250: 5bd9 b83f 6a83 1e3e 6df0 46bf f59b b5be
00000260: 3102 1ebf 2638 88bd 7413 a3be f959 6dbf
00000270: c2c9 313f f9bd 21c0 ecbe 0a40 4fd2 bfbd
00000280: 619d 65bf b51d 29bf 8ea5 e83e fad3 bdbd
00000290: 5006 e83e 70be 7f3e 8fe3 bebf 2c9e 42bf
000002a0: 37c2 17bd e5ac 6dbf 36c7 67bf e446 99be
000002b0: 0955 a2bf c26b 77bf fbef 9c3e 56ed adbe
000002c0: 4622 2dbf af59 523f aec5 f53f aaf4 543f
000002d0: 9d0b 813e 7d9b e93f fec4 653e 3bae 08be
000002e0: b0ae eabe cf85 863e 4b9d 433e 12d8 773e
000002f0: 9ad2 f33d 7442 20be 4252 babf 646c acbe
00000300: 41e2 01bf 99cf 42c0 1e51 a0be 9512 713e
00000310: a8dc 53bc 0876 593d 4163 31be b776 ea3e
00000320: 2685 edbe 77e5 0fbf 72b5 4e40 7eda 1b3e
00000330: b8e6 7ebe d582 99be 044f 35bf 5d6d 903e
00000340: 190e aa3f 0a67 63bf e37f d43e 2a8f 0dc0
00000350: 3e15 03bf b334 173e aa26 5b3d dcbe 2bbc

model.backbone1.2.convs.0.bias f4 [24]
-0.030147467 0.039875925 0.02758409 -0.010442483 -0.013812237 0.00057705084 -0.022783402 -0.0017449739
-0.02960236 -0.0031032788 0.008345589 0.0005171613 -0.027932808 -0.010608257 -0.028777417 0.0024678411
-0.0027969726 -0.022235846 0.034734335 -0.0046522645 0.029555788 0.029890046 -0.011722025 -0.00683724
00000000: d2f7 f6bc f054 233d 08f8 e13c f316 2bbc
00000010: b94c 62bc 3a45 173a 42a4 babc 9cb7 e4ba
00000020: a680 f2bc 6160 4bbb f0bb 083c 1b92 073a
00000030: 58d3 e4bc 41ce 2dbc 9ebe ebbc 81bb 213b
00000040: 6a4d 37bb f327 b6bc 9745 0e3d 0672 98bb
00000050: fb1e f23c f8db f43c bd0d 40bc ed0a e0bb

model.backbone1.2.convs.1.weight f4 [24, 24, 1, 1]
0.031124594 0.021457855 -0.39420095 0.049679212 0.12476901 0.032401722 0.14602509 0.17824672
-0.02379026 -0.09881466 0.00595221 -0.021011984 0.69391763 -0.005093259 -0.049005244 0.016015353
-0.09245677 0.10526565 -0.085266285 0.0027313328 0.016098633 0.03815141 0.18967922 -0.029659415
0.16747698 0.09906266 0.07634093 -0.028964985 0.053679507 0.2818476 0.18322304 0.14271155
-0.14980313 -0.093592316 0.09902343 -0.22828017 0.091858186 -0.17450708 0.100545876 -0.08854039
0.0004190027 0.775045 -0.21414313 -0.13081126 -0.0043809237 0.09336499 0.06935199 -0.052156504
0.49631074 0.23600975 -0.5353766 0.082650706 -0.07242356 -0.044897985 0.6303491 -0.10939368
-0.013767034 0.00672732 0.094239846 0.021237772 0.20377825 -0.07482909 0.378858 -0.09916336
-0.6659141 -0.06618365 -0.6554975 0.06829069 -0.09577082 0.008445532 0.42135596 0.015523241
0.14532115 0.14237791 -0.0027352637 0.37922102 -0.13512559 -0.025801 0.059891257 -0.14064462
-0.13106865 0.16777772 0.117027 0.071175255 -0.040255267 -0.0269783 -0.102374 -0.1315658
-0.011373424 0.20487419 -0.04302389 -0.07775305 0.102481455 0.13108695 -0.005269736 -0.100984186
-0.17479137 -0.071542725 -0.6308308 0.062214807 0.01900802 -0.10744009 0.2210981 -0.032498572
0.052847728 0.3503927 0.027981935 0.07012811 0.19765031 -0.5010054 -0.034518316 -0.28917575
-0.591863 0.26277208 0.36399657 0.35291684 0.07173505 -0.015044147 -0.123972744 -0.007531242
0.08671141 0.093048654 -0.101132974 -0.34452543 -0.19974887 -0.04182742 0.046010144 -0.04351525
-0.24363573 0.07181366 0.17012733 0.03876051 -0.014234335 -0.040353734 0.033001095 0.0079221185
-0.0034570696 -0.06343362 0.038454127 -0.095658444 0.07910278 0.28412676 0.005144875 0.3772345
0.08104446 0.15243772 0.14065862 0.2993759 0.116268195 -0.07477423 0.28758058 -0.18931773
-0.0026432998 -0.04878029 0.07589418 0.019528532 -0.0015017653 0.005053561 0.08437621 0.05958463
-6.466614e-05 0.07405479 0.054580275 -0.005902735 -0.030095246 -0.022229372 -0.12683865 -0.14841817
-0.015454516 0.021268906 0.028998338 0.01739946 -0.1236027 1.1212711 -0.08935706 0.35089934
0.018433366 -0.0395222 0.023925802 -0.007599353 -0.004323612 -0.027290842 0.0397777 -0.06848947
0.005028993 0.029641954 -0.014742571 0.019494053 -0.058596585 0.0016425163 0.024465734 -0.12786373
0.024703812 0.29499742 0.093152925 -0.07355929 -0.22433552 -0.12614353 -0.01158171 0.14190741
-0.51102144 0.046760455 -0.27885896 -0.07117629 0.23587506 -0.7430735 -0.2795972 -0.36393705
-0.5324883 -0.27328008 0.02174829 -0.0922105 0.3060732 0.2716135 -0.36682805 -0.06277161
-0.019888423 0.026570952 0.16826068 0.029303042 0.13577938 -0.066902444 -0.27453998 -0.05093831
0.0048344037 -1.7255527 -0.040914405 0.07672116 -0.10404106 -0.02137267 -0.015911646 0.10789717
-0.11254086 -0.0066400375 0.027948262 0.07855901 0.07705275 -0.014638213 1.2410848 0.029391855
-0.04298655 0.02305412 0.0934347 0.17902194 0.30573756 0.27606735 0.67447263 0.10918349
0.0432323 0.027596235 0.15537713 0.10834424 -0.031399783 0.012430084 0.47023407 0.32239485
00000000: 01f9 fe3c 62c8 af3c b5d4 c9be 6e7c 4b3d
00000010: e586 ff3d abb7 043d 9a87 153e 4f86 363e
00000020: cbe3 c2bc 575f cabd c20a c33b 5321 acbc
00000030: 96a4 313f 5ae5 a6bb b9b9 48bd a132 833c
00000040: fa59 bdbd 8495 d73d 17a0 aebd 2900 333b
00000050: 48e1 833c a744 1c3d 453b 423e 4df8 f2bc
00000060: 167f 2b3e 5de1 ca3d a258 9c3d fa47 edbc
00000070: 0bdf 5b3d 544e 903e d29e 3b3e fa22 123e
00000080: fe65 19be 54ad bfbd cccc ca3d 47c2 69be
00000090: 2520 bc3d fcb1 32be ffea cd3d aa54 b5bd
000000a0: 97ad db39 5969 463f 5648 5bbe 63f3 05be
000000b0: da8d 8fbb 2536 bf3d 6b08 8e3d 0fa2 55bd
000000c0: 711c fe3e 8aac 713e 710e 09bf c644 a93d
000000d0: ce52 94bd f3e6 37bd 8f5e 213f cb09 e0bd
000000e0: 208f 61bc da70 dc3b d200 c13d d6fa ad3c
000000f0: 3fab 503e fe3f 99bd adf9 c13e 2916 cbbd
00000100: 5979 2abf 4b8b 87bd afce 27bf fddb 8b3d
00000110: 7e23 c4bd 215f 0a3c f8bb d73e 3155 7e3c
00000120: 11cf 143e 84cb 113e 1c42 33bb 4229 c23e
00000130: 5d5e 0abe 9e5c d3bc 8950 753d 2505 10be
00000140: dc36 06be eccd 2b3e daab ef3d 55c4 913d
00000150: b5e2 24bd 9901 ddbc 76a9 d1bd 2fb9 06be
00000160: 9957 3abc 8aca 513e d239 30bd fe3c 9fbd
00000170: cce1 d13d a83b 063e c0ad acbb ccd0 cebd
00000180: 82fc 32be fe84 92bd 217e 21bf f4d4 7e3d
00000190: b5b6 9b3c 8d09 dcbd 8a67 623e 391d 05bd
000001a0: dc76 583d ac66 b33e 5f3a e53c 549f 8f3d
000001b0: d864 4a3e e441 00bf 1463 0dbd d80e 94be
000001c0: 5584 17bf 108a 863e c25d ba3e 84b1 b43e
000001d0: d3e9 923d ba7b 76bc 6ce5 fdbd a3c8 f6bb
000001e0: c095 b13d 4b90 be3d ce1e cfbd a365 b0be
000001f0: f88a 4cbe 3b53 2bbd 2275 3c3d 0c3d 32bd
00000200: a57b 79be 0a13 933d dc35 2e3e 57c3 1e3d
00000210: 2137 69bc f549 25bd 282c 073d c6cb 013c
00000220: 0190 62bb 7ce9 81bd 1382 1d3d 93e8 c3bd
00000230: a300 a23d 1079 913e 5796 a83b e124 c13e
00000240: a3fa a53d a218 1c3e d008 103e cc47 993e
00000250: 051e ee3d 3b23 99bd c33d 933e 82dc 41be
00000260: 363b 2dbb d7cd 47bd 686e 9b3d 4dfa 9f3c
00000270: e2d6 c4ba 5898 a53b 6fcd ac3d 030f 743d
00000280: 5f9d 87b8 0aaa 973d 918f 5f3d bb6b c1bb
00000290: 4e8a f6bc 5f1a b6bc fee1 01be effa 17be
000002a0: f034 7dbc 213c ae3c ec8d ed3c 5089 8e3c
000002b0: 6a23 fdbd d085 8f3f d600 b7bd 14a9 b33e
000002c0: 9201 973c 08e2 21bd 0b00 c43c fe03 f9bb
000002d0: 16ad 8dbb 0b91 dfbc f1ed 223d 3544 8cbd
000002e0: 40ca a43b afd3 f23c d38a 71bc feb1 9f3c
000002f0: f902 70bd b449 d73a 5d6c c83c b6ee 02be
00000300: a65f ca3c e709 973e f6c6 be3d 41a6 96bd
00000310: 36b8 65be c52b 01be 36c1 3dbc 2d50 113e
00000320: 4dd2 02bf e487 3f3d 9ac6 8ebe e0c4 91bd
00000330: 3b89 713e 113a 3ebf 5d27 8fbe f555 babe
00000340: 2751 08bf 5eeb 8bbe 7829 b23c dcd8 bcbd
00000350: a0b5 9c3e ed10 8b3e e3d0 bbbe 678e 80bd
00000360: 0ced a2bc 53ab d93c 874c 2c3e ef0c f03c
00000370: c009 0b3e 2604 89bd 8190 8cbe b0a4 50bd
00000380: eb69 9e3b e9de dcbf dd95 27bd fc1f 9d3d
00000390: 7b13 d5bd bd15 afbc 2459 82bc 31f9 dc3d
000003a0: d37b e6bd ac94 d9bb c1f3 e43c 8ce3 a03d
000003b0: d5cd 9d3d 1ed5 6fbc dedb 9e3f 30c7 f03c
000003c0: aa12 30bd fedb bc3c b15a bf3d 8751 373e
000003d0: a289 9c3e b358 8d3e 3daa 2c3f 989b df3d
000003e0: 5a14 313d 8011 e23c 2f1b 1f3e 96e3 dd3d
000003f0: 0f9d 00bd 8da7 4b3c 85c2 f03e f010 a53e

model.backbone1.2.convs.1.bias f4 [24]
-0.35609654 0.41896167 1.0582213 0.6309296 0.4947942 0.97294974 0.3557193 -0.039309304
0.45780313 -2.2132895 -0.09658703 0.11267598 0.4701978 0.39841026 0.4680617 0.09484596
0.8572019 0.204385 0.893202 -0.050488494 -0.23746024 -0.05850222 1.1832182 0.79039097
00000000: 4952 b6be 2582 d63e cc73 873f 9a84 213f
00000010: aa55 fd3e 3c13 793f d720 b63e cb02 21bd
00000020: 2c65 ea3e 89a6 0dc0 6ccf c5bd aac2 e63d
00000030: c4bd f03e 6efc cb3e c8a5 ef3e 993e c23d
00000040: 9571 5b3f 4d4a 513e e3a8 643f 06cd 4ebd
00000050: c728 73be 06a0 6fbd b273 973f 1057 4a3f

model.backbone1.3.convs.0.weight f4 [24, 1, 3, 3]
-0.7850759 -0.23201424 -0.20423591 0.26362923 4.413892 0.021157492 0.18724744 1.0044936
0.5844768 -0.48804292 0.3723609 0.70582455 0.84869415 -0.5076966 1.8737621 0.7375712
0.0088803405 0.3800823 0.31370538 -0.19126625 0.28528816 -0.6559467 -2.3500216 0.5096755
0.4982347 0.15685003 0.32606232 0.32541895 -1.1312224 -1.7985533 1.4416386 -0.817551
-2.2356386 -0.41434348 1.2774295 -0.30079132 -0.69974047 -1.043574 -0.14296126 0.46417332
1.2194045 -0.47294086 -0.40755293 1.6018169 -0.4830727 1.03116 1.9301387 -0.07527813
0.47224158 -0.19533256 -0.33081794 -0.048644595 0.16310787 0.027693687 -0.6281793 0.4426946
1.3516499 -1.3506315 0.5402942 1.3285431 -0.5511901 -0.26192954 1.0708445 0.35478935
1.4254019 0.84510297 0.6734146 1.7234462 0.8151039 -0.033340357 0.47137043 0.37029687
-0.33735684 -0.6480992 0.5859012 0.13062531 -1.8985566 -0.048902817 0.56618875 -1.2770443
-0.5236634 0.11179534 1.0995607 0.6992849 0.799619 1.3635305 0.1762968 -0.47816885
-0.014865689 -0.2530136 0.8810184 0.7233664 0.29461062 0.3965667 0.1700621 0.395405
-0.1897957 1.5159982 0.102634996 -0.37726352 -0.7862429 0.21089043 1.0291636 -0.73079586
-0.43660355 0.28284454 0.9929845 0.5625132 -0.51760125 -1.2544152 -0.07537972 -0.048101388
1.3156667 0.22311816 -0.11190326 0.588767 0.17729804 1.2454535 0.8528489 0.12312612
1.0832345 1.9950864 -0.43837392 -0.45173228 0.52731586 -0.028827375 0.06327078 1.0074395
-0.0015928425 -0.13763818 -3.397678 0.35687804 -0.35403642 1.1234423 0.5234126 0.5924254
0.7882528 0.03157208 1.3487729 1.7315458 -0.19123006 0.032059304 -0.18044531 -1.0359579
-0.3784058 -1.3048735 -0.5083614 0.77680093 -0.66038984 -0.6830163 0.5257426 1.6884571
0.82205665 0.13546592 0.83639 -0.25574932 0.7323804 -0.005570941 -1.2093927 -0.24718349
-1.9760711 -1.6908432 0.52750146 0.20113513 -0.12583424 0.24484837 -0.9623482 -0.42773274
-0.3362047 -0.77656734 -0.39560974 -0.18597458 1.0265107 -0.5346984 -0.52104837 1.3685919
0.58972156 0.1971225 -0.08640545 0.11590464 0.22791012 -0.6677544 -0.66460955 -0.029174812
1.8277194 -0.8207612 0.83850086 0.88439417 -0.267241 1.380372 1.9474236 0.061791923
1.7514246 2.9091327 0.9012996 0.0039455104 0.30147415 -0.11439674 0.0101052895 -0.90325886
-0.7291301 1.3892163 1.9070574 0.43948215 -0.23646984 -0.59732974 0.16920577 -1.4825846
1.374404 -0.3359584 -1.2249079 1.558709 -0.006019114 -0.10632947 -0.04088166 -0.13886514
00000000: bcfa 48bf 2495 6dbe 3823 51be 69fa 863e
00000010: 9a3e 8d40 7a52 ad3c cbbd 3f3e 3f93 803f
00000020: 46a0 153f c3e0 f9be 16a6 be3e ebb0 343f
00000030: 0544 593f 68f8 01bf 70d7 ef3f 77d1 3c3f
00000040: d97e 113c 269a c23e fe9d a03e 4ddb 43be
00000050: 4a11 923e 1fec 27bf c166 16c0 187a 023f
00000060: 9e18 ff3e 4b9d 203e a4f1 a63e 509d a63e
00000070: e5cb 90bf ff36 e6bf 9d87 b83f 064b 51bf
00000080: b414 0fc0 d424 d4be cf82 a33f 5201 9abe
00000090: 3122 33bf d593 85bf 7064 12be 20a8 ed3e
000000a0: 7215 9c3f 4e25 f2be c7aa d0be 5608 cd3f
000000b0: 4e55 f7be 0dfd 833f c90e f73f 6c2b 9abd
000000c0: a6c9 f13e 4205 48be f860 a9be 8e3f 47bd
000000d0: c005 273e dfdd e23c 5cd0 20bf dea8 e23e
000000e0: dd02 ad3f 7ee1 acbf b850 0a3f b30d aa3f
000000f0: cb1a 0dbf a11b 86be 6f11 893f f3a6 b53e
00000100: 9273 b63f ab58 583f e664 2c3f e399 dc3f
00000110: a6aa 503f e68f 08bd 7757 f13e 8d97 bd3e
00000120: 09ba acbe d4e9 25bf 9ffd 153f a4c2 053e
00000130: e703 f3bf 524e 48bd bff1 103f 3076 a3bf
00000140: ce0e 06bf f5f4 e43d 68be 8c3f 5604 333f
00000150: d5b3 4c3f 2b88 ae3f 2687 343e 8cd2 f4be
00000160: 388f 73bc 008b 81be 6c8a 613f 8a2e 393f
00000170: 34d7 963e ca0a cb3e c224 2e3e 8672 ca3e
00000180: ce59 42be 3b0c c23f 4c32 d23d af28 c1be
00000190: 3747 49bf a9f3 573e a2bb 833f 7015 3bbf
000001a0: 808a dfbe 00d1 903e 3b34 7e3f dd00 103f
000001b0: 8481 04bf ad90 a0bf af60 9abd f605 45bd
000001c0: c467 a83f 1679 643e 892d e5bd 6fb9 163f
000001d0: 9e8d 353e 056b 9f3f 4e54 5a3f 8c29 fc3d
000001e0: 6ea7 8a3f fe5e ff3f 8c72 e0be 7449 e7be
000001f0: 2cfe 063f 6327 ecbc 1c94 813d c7f3 803f
00000200: edc6 d0ba 06f1 0cbe 8e73 59c0 b8b8 b63e
00000210: 4344 b5be f5cc 8f3f 5efe 053f 31a9 173f
00000220: efca 493f ba51 013d 97a4 ac3f 4ba3 dd3f
00000230: d0d1 43be 9e50 033d a8c6 38be 459a 84bf
00000240: 68be c1be 1806 a7bf f923 02bf 6ddc 463f
00000250: 4f0f 29bf 28da 2ebf 1197 063f 5d1f d83f
00000260: 4e72 523f 94b7 0a3e a81d 563f 93f1 82be
00000270: 487d 3b3f 718c b6bb 61cd 9abf ab1d 7dbe
00000280: e6ef fcbf 8d6d d8bf 560a 073f 5ef6 4d3e
00000290: b1da 00be 88b9 7a3e 745c 76bf c9ff dabe
000002a0: 0623 acbe 1ecd 46bf 5c8d cabe 1f70 3ebe
000002b0: b464 833f ffe1 08bf 6d63 05bf 052e af3f
000002c0: fef7 163f 7bda 493e 57f5 b0bd 695f ed3d
000002d0: 4561 693e f4f1 2abf da23 2abf 0400 efbc
000002e0: b6f2 e93f 681d 52bf fea7 563f a867 623f
000002f0: d0d3 88be 08b0 b03f 2d45 f93f 8719 7d3d
00000300: ae2e e03f 3b2f 3a40 92bb 663f 5749 813b
00000310: d25a 9a3e d748 eabd a890 253c f93b 67bf
00000320: 45a8 3abf d7d1 b13f 751a f43f ce03 e13e
00000330: 2625 72be 9aea 18bf 4744 2d3e 55c5 bdbf
00000340: 78ec af3f bd02 acbe c8c9 9cbf c783 c73f
00000350: fd3b c5bb 44c3 d9bd 8773 27bd aa32 0ebe

model.backbone1.3.convs.0.bias f4 [24]
-0.010846622 -0.0023353144 -0.013073211 0.008192532 -0.016349327 0.0073844255 0.0038308909 0.007727696
0.011602672 0.0123716565 0.008262742 0.00042861296 -0.010290787 -0.009789084 0.0052215285 0.006476397
0.0021446946 -0.01262325 -0.005222157 -0.011501658 -0.00025156967 -0.0021027739 0.011401102 -0.002384985
00000000: 08b6 31bc 130c 19bb 0531 56bc f839 063c
00000010: 06ef 85bc 0df9 f13b af0f 7b3b 9d38 fd3b
00000020: 2219 3e3c 7db2 4a3c 7460 073c 75b7 e039
00000030: b09a 28bc 6562 20bc 5b19 ab3b f537 d43b
00000040: 018e 0c3b bfd1 4ebc a11e abbb 7371 3cbc
00000050: 1ce5 83b9 b1ce 09bb b0cb 3a3c 694d 1cbb

model.backbone1.3.convs.1.weight f4 [28, 24, 1, 1]
-0.2123622 -0.005920544 0.029731998 -0.004681055 0.04313772 -0.01107139 0.002039052 0.025690854
-0.04171616 -0.0024605277 0.03387448 0.014305325 -0.022891106 0.03217786 -0.21826005 -0.011973929
-0.04359814 0.06546134 -0.014819942 -0.031202476 0.013403446 -0.14997718 -0.06429171 -0.029992592
0.014040523 -0.28683645 0.008518949 -0.24228542 -0.07133746 -0.010111732 0.17546493 -0.04220516
-0.005601116 -0.042143676 0.038910676 0.12137726 -0.0020515495 -0.09158502 0.027036289 0.02892494
-0.080068715 -0.012304282 -0.012793775 0.19144607 0.11414512 0.057262335 -0.020926364 0.2951287
-0.25696567 0.042108472 0.16606474 0.007817168 0.13050275 0.021359753 0.01649059 -0.0052113705
0.0366664 -0.103981726 0.14649098 0.009267558 -0.09284381 -0.07956846 -0.06866019 -0.0045408127
0.013849699 0.078283325 -0.1981865 -0.07946789 0.00018938573 0.020742144 0.0030685023 -0.043817345
0.11118629 -0.0019311206 0.22786605 0.060010184 -0.020258885 -0.010021489 -0.07098773 -0.030868353
-0.02950022 -0.15688951 -0.0957725 -0.048422184 0.059781533 -0.14790526 -0.0061782766 -0.025859399
0.027267156 -0.09401914 0.31431377 0.1214415 0.047572963 0.034563873 -0.015284519 -0.05347776
-0.23590997 -6.02138e-05 -0.14022532 0.18476675 0.12623394 -0.013819554 0.30756053 0.020009914
0.27411675 -0.027626954 -0.27877915 0.07163821 0.48072186 -0.05549057 0.012049514 -0.05241052
-0.15091246 0.18175457 -0.27338204 -0.006980509 -0.1993122 0.011288192 -0.057759244 -0.10894947
-0.058839645 -0.008844135 -0.039279692 -0.08526056 0.014443902 -0.17236295 0.058114573 0.049279034
0.048885603 -0.0065013883 -0.01992667 0.019994328 -0.020499133 0.004168457 0.2753624 -0.044053648
-0.010670419 -0.044739526 -0.02191036 0.067616954 -0.008237938 -0.056922626 0.025311822 -0.026972331
-0.0436838 -0.006240294 -0.061314926 -0.239528 -0.053799473 -0.11165831 -0.14911458 -0.009933595
-0.0014797255 -0.016822346 0.0043746945 -0.048602365 -0.026601542 0.07697589 -0.017148353 -0.1564592
0.012626101 0.028678982 -0.016820315 -0.07248341 -0.113624774 -0.06631365 -0.015389483 -0.027201226
0.086109586 0.24546413 0.07041234 -0.07631834 -0.17742558 -0.038305897 0.06984334 -0.1761287
-0.053947035 -0.048486616 -0.255641 -0.005578865 -0.109149285 0.012886067 0.18272276 -0.37395635
-0.23938213 0.8599845 -0.11266583 -0.08864421 0.1894734 0.0625463 0.018028881 0.034032118
-0.038099304 -0.029303564 -0.025969269 -0.03416373 0.07987064 -0.114709444 0.017756512 -0.05099867
0.29995438 0.0014545254 0.048954677 -0.038511053 -0.05274623 -0.059320193 0.22609623 0.020337934
0.106827535 -0.07380146 -0.040270552 0.014197384 0.052986037 -0.045034993 0.150485 0.03482258
0.03547315 -0.06357862 0.019487109 -0.07844848 0.06176951 -0.1486673 -0.08538327 -0.56613505
-0.07649144 -0.23213555 0.004092314 0.084929705 -0.015236293 -0.08269576 -0.03261695 0.052420724
-0.13065533 0.016779074 -0.09965957 -0.09058949 0.034170225 -0.00023622306 -0.030478042 0.041825607
0.038159315 -0.13587467 0.26343957 0.055686202 0.17258023 0.082243 0.037356377 -0.04856595
-0.004939109 -0.023940954 -0.2833605 -0.028322255 0.010185151 0.015146555 0.102206714 -0.04444858
00000000: 7a75 59be 1f01 c2bb 8590 f33c 8963 99bb
00000010: 2eb1 303d c664 35bc 9ea1 053b a075 d23c
00000020: 90de 2abd ce40 21bb f7bf 0a3d e260 6a3c
00000030: 2186 bbbc efcc 033d 907f 5fbe 4c2e 44bc
00000040: f793 32bd 9810 863d 58cf 72bc 569c ffbc
00000050: 219a 5b3c 9e93 19be 5fab 83bd 06b3 f5bc
00000060: 390a 663c 3adc 92be 1093 0b3c ab19 78be
00000070: 6019 92bd aeab 25bc 14ad 333e 51df 2cbd
00000080: 9189 b7bb d99e 2cbd cd60 1f3d a494 f83d
00000090: 4a73 06bb ed90 bbbd 357b dd3c fff3 ec3c
000000a0: 11fb a3bd e697 49bc fb9c 51bc 700a 443e
000000b0: ebc4 e93d e98b 6a3d c46d abbc 1c1b 973e
000000c0: 0191 83be ef79 2c3d e00c 2a3e 9413 003c
000000d0: 83a2 053e a6fa ae3c 4617 873c 25c4 aabb
000000e0: 822f 163d 5ff4 d4bd bb01 163e f5d6 173c
000000f0: e524 bebd caf4 a2bd b79d 8cbd 19cb 94bb
00000100: d9e9 623c 0253 a03d 67f1 4abe 10c0 a2bd
00000110: d895 4639 6eeb a93c ed18 493b d179 33bd
00000120: a3b5 e33d a81d fdba b855 693e 3dcd 753d
00000130: f6f5 a5bc 2c31 24bc 0462 91bd a1df fcbc
00000140: 72aa f1bc a5a7 20be 5f24 c4bd 5756 46bd
00000150: 7bdd 743d 7a74 17be 2473 cabb 17d7 d3bc
00000160: 5f5f df3c 1b8d c0bd bced a03e 52b6 f83d
00000170: dedb 423d d992 0d3d eb6b 7abc 7f0b 5bbd
00000180: 6292 71be 138e 7cb8 3a97 0fbe 7f33 3d3e
00000190: 7843 013e 696b 62bc 9378 9d3e d5eb a33c
000001a0: 0859 8c3e ec51 e2bc 24bc 8ebe 0eb7 923d
000001b0: 2d21 f63e 144a 63bd 536b 453c 6aac 56bd
000001c0: cc88 1abe df1d 3a3e bbf8 8bbe c1bc e4bb
000001d0: 7f18 4cbe 1cf2 383c f594 6cbd e620 dfbd
000001e0: d701 71bd fee6 10bc bee3 20bd 179d aebd
000001f0: 1ea6 6c3c ea7f 30be 8c09 6e3d d0d8 493d
00000200: 453c 483d 9909 d5bb 413d a3bc 25cb a33c
00000210: cced a7bc 8d97 883b 4dfc 8c3e 9971 34bd
00000220: fbd2 2ebc cb40 37bd 5b7d b3bc c27a 8a3d
00000230: 6bf8 06bc b327 69bd bd5a cf3c 14f5 dcbc
00000240: c9ed 32bd 617b ccbb 5c25 7bbd d446 75be
00000250: d65c 5cbd 1dad e4bd 7eb1 18be 84c0 22bc
00000260: 59f3 c1ba 04cf 89bc 9959 8f3b 4613 47bd
00000270: 7aeb d9bc 89a5 9d3d b47a 8cbc d736 20be
00000280: b5dd 4e3c 2ff0 ea3c c2ca 89bc 2f72 94bd
00000290: 1bb4 e8bd 73cf 87bd 2c24 7cbc 1bd5 debc
000002a0: 395a b03d f35a 7b3e 5834 903d ca4c 9cbd
000002b0: 0daf 35be a5e6 1cbd 060a 8f3d 155b 34be
000002c0: 91f7 5cbd e799 46bd 61e3 82be e9ce b6bb
000002d0: a989 dfbd 1520 533c ad1b 3b3e 3577 bfbe
000002e0: 9720 75be f227 5c3f 58bd e6bd 188b b5bd
000002f0: 5105 423e 4618 803d 4eb1 933c 4365 0b3d
00000300: 040e 1cbd 070e f0bc 81bd d4bc 44ef 0bbd
00000310: 3893 a33d c9ec eabd 1b76 913c fbe3 50bd
00000320: 9f93 993e c6a5 be3a b384 483d c4bd 1dbd
00000330: 6e0c 58bd bbf9 72bd c585 673e bd9b a63c
00000340: 65c8 da3d 3825 97bd bcf2 24bd 259c 683c
00000350: e307 593d 9d76 38bd bd18 1a3e 1fa2 0e3d
00000360: 4b4c 113d 8235 82bd 6ea3 9f3c 99a9 a0bd
00000370: 0702 7d3d 3e3c 18be 6ddd aebd 3aee 10bf
00000380: 8ba7 9cbd f1b4 6dbe d118 863b a0ef ad3d
00000390: a5a1 79bc 655c a9bd 5a99 05bd 1db7 563d
000003a0: 83ca 05be 4574 893c 511a ccbd fc86 b9bd
000003b0: 14f6 0b3d a5b2 77b9 16ad f9bc 5451 2b3d
000003c0: f14c 1c3d bb22 0bbe 8de1 863e 3717 643d
000003d0: dfb8 303e 056f a83d 0003 193d 17ed 46bd
000003e0: 40d8 a1bb d21f c4bc a114 91be 1304 e8bc
000003f0: 9fdf 263c 4229 783c c151 d13d b70f 36bd

model.backbone1.3.convs.1.bias f4 [28]
0.06811559 -0.3576687 0.12391689 0.2545985 0.030126609 0.7158324 0.0046743336 1.7839519
0.2211382 1.0538566 0.28580967 0.28569078 0.98798126 -0.81852 -0.27275136 -0.35909244
-0.12271736 -0.24609761 0.45158178 0.5884207 0.37886554 0.01064514 0.19053268 -1.3050623
-0.11305698 -0.95197475 -0.892598 0.5706144
00000000: 3080 8b3d 5a20 b7be 23c8 fd3d bc5a 823e
00000010: 14cc f63c cb40 373f 272b 993b 8958 e43f
00000020: 0d72 623e c6e4 863f a555 923e 1046 923e
00000030: 57ec 7c3f 878a 51bf 11a6 8bbe f7da b7be
00000040: 3d53 fbbd 0301 7cbe ba35 e73e bda2 163f
00000050: aafa c13e f468 2e3c 001b 433e 480c a7bf
00000060: 6b8a e7bd 9eb4 73bf 4d81 64bf c913 123f

model.backbone1.4.convs.0.weight f4 [28, 1, 3, 3]
1.1395696 2.0142527 1.3281641 1.5023732 2.594089 1.6282556 0.7627734 1.2672048
0.6842884 -0.74552613 -1.0973939 -0.65530044 -1.0239714 -1.9577842 -1.0910368 -0.6892309
-1.1032141 -0.41323364 -0.6395195 -1.3512417 -1.06242 0.6842853 0.37441587 -0.28999436
1.4048045 1.3824297 0.43526116 0.855049 1.2295402 0.6482874 0.45535687 1.6201692
1.1202587 -0.25474384 0.11860407 0.6394509 -0.521121 -0.5173152 -0.40467814 -1.1117
-1.0334784 -0.41382608 -0.79425496 -1.0379765 -0.28866774 -1.0623152 -0.9911524 -0.29797068
-1.2510979 -1.4240228 -0.3180778 -0.5276017 -0.7508676 -0.114271745 0.84020543 1.4725144
0.333415 0.5211318 2.0350842 1.1280395 -0.53570974 1.026478 1.4684232 -0.73968315
-0.02142206 0.5260871 0.039933715 0.68798006 0.84980685 0.4652826 0.8371667 0.27611098
-0.73179764 -1.4817752 -0.88135666 -1.1105877 -2.1505451 -1.6044251 -0.52375454 -1.2915666
-0.8659961 1.3146951 1.475591 0.5740338 0.8363312 0.9335184 0.63989633 -0.30465147
-0.19729777 0.1322546 -0.5834235 -1.4761171 -1.1244673 -1.4451061 -2.385923 -1.3872415
-1.2987514 -1.4767854 -0.45382446 -0.7166594 -0.8076638 -0.27518338 -0.6700681 -1.2490212
-0.4611816 -0.21111879 -0.5029359 -0.27046403 -0.198571 -0.33329287 -0.052356835 -0.7779452
-1.3392477 -0.62103176 -0.61838853 -0.99749935 -0.44717884 -2.0382068 -2.16961 -0.99084896
-2.0514686 -1.3002515 0.037793327 0.567234 1.2596086 1.0685277 -0.39883283 -1.9185567
-1.8228387 0.85996884 0.5399778 -0.38459143 0.6050552 1.3539002 0.6917569 1.2732698
1.9755375 0.7508041 1.695986 2.4114487 0.9264871 0.8012948 0.5417254 0.108220376
-1.4649423 -1.8993641 -0.7308906 -1.1450227 -1.8250403 -1.0476844 0.18327016 -0.2364605
-0.50686485 -0.49775973 -1.0776625 -0.6285118 -1.007648 -1.4723477 -0.7126872 -0.3780068
-0.55180866 -0.4332211 -1.0502456 -0.96381086 -0.761087 -0.84630066 -0.64735824 -0.14207986
-0.1263567 0.49821874 0.6249678 1.3859904 1.1314322 0.10567669 1.6518338 1.6776687
-0.41049764 -0.0010074755 0.114488326 -0.36836934 1.3486944 0.94410336 0.099150725 2.1604326
1.5553741 -0.14879116 0.8753001 0.5442787 -0.19999142 -0.47052985 -0.92345476 -0.79519427
-1.0498421 -2.102938 -1.3448082 -1.1206986 -1.4929804 -0.68861276 1.2175235 1.7069314
0.7041901 1.2704833 1.940154 0.95091283 0.4862813 0.85903573 0.36719334 -0.94151235
-1.0914913 -0.11592128 -0.9894084 -1.3419067 -0.30175978 -0.032328375 -0.047478236 -0.12462683
0.56016326 1.7550654 1.9149702 0.51167136 1.8431146 1.8422643 -0.05291442 0.49256805
0.037436407 -1.3381537 -1.9708167 -1.4025491 -0.9267531 -0.8548343 -1.1706355 -0.8479826
-1.32487 -1.2482468 2.2968376 2.0094912 -0.5069726 3.2691789 2.8484907 0.47391
2.869981 2.0089045 0.5413314 -0.9826779 -0.5476164 0.15361175 -1.3932784 -0.7615553
0.40793937 -1.0186986 -0.0394605 0.5289271
00000000: 6bdd 913f 84e9 0040 4801 aa3f c44d c03f
00000010: 8e05 2640 ae6a d03f 1e45 433f c433 a23f
00000020: 862d 2f3f cdda 3ebf 6777 8cbf c5c1 27bf
00000030: 7f11 83bf ac98 fabf 18a7 8bbf 7071 30bf
00000040: 1f36 8dbf 5c93 d3be 8db7 23bf 7df5 acbf
00000050: 61fd 87bf 522d 2f3f 70b3 bf3e 247a 94be
00000060: a2d0 b33f 75f3 b03f 8dda de3e 7ee4 5a3f
00000070: 9361 9d3f 2af6 253f 8924 e93e b461 cf3f
00000080: a364 8f3f c96d 82be b1e6 f23d 0eb3 233f
00000090: 3068 05bf c56e 04bf f931 cfbe 304c 8ebf
000000a0: 0549 84bf 03e1 d3be 4b54 4bbf 6adc 84bf
000000b0: 42cc 93be f2f9 87bf 2abc 7dbf 9d8f 98be
000000c0: fa23 a0bf 6146 b6bf 18db a2be e810 07bf
000000d0: dc38 40bf 4e07 eabd b417 573f 5a7b bc3f
000000e0: 5fb5 aa3e e568 053f d23e 0240 9963 903f
000000f0: 4624 09bf a263 833f 4bf5 bb3f e05b 3dbf
00000100: 517d afbc a5ad 063f 8991 233d 761f 303f
00000110: f18c 593f 8539 ee3e 8f50 563f 6b5e 8d3e
00000120: 1757 3bbf cfaa bdbf 97a0 61bf bd27 8ebf
00000130: 88a2 09c0 cd5d cdbf c714 06bf 0e52 a5bf
00000140: ecb1 5dbf ee47 a83f 2ae0 bc3f e1f3 123f
00000150: cd19 563f 10fb 6e3f 3fd0 233f 47fb 9bbe
00000160: 6d08 4abe c06d 073e 3e5b 15bf 68f1 bcbf
00000170: 8bee 8fbf 3df9 b8bf f6b2 18c0 2191 b1bf
00000180: 7c3d a6bf 4e07 bdbf ae5b e8be fe76 37bf
00000190: 0ec3 4ebf d6e4 8cbe 9589 2bbf eddf 9fbf
000001a0: ff1f ecbe 862f 58be 68c0 00bf 437a 8abe
000001b0: 3256 4bbe 5da5 aabe 1f74 56bd 6b27 47bf
000001c0: 786c abbf f0fb 1ebf b64e 1ebf 1e5c 7fbf
000001d0: a0f4 e4be fb71 02c0 e4da 0ac0 47a8 7dbf
000001e0: 434b 03c0 a46e a6bf 2dcd 1a3d 3f36 113f
000001f0: db3a a13f 84c5 883f d133 ccbe 4493 f5bf
00000200: c752 e9bf eb26 5c3f fc3b 0a3f 2be9 c4be
00000210: e6e4 1a3f 9a4c ad3f fb16 313f 81fa a23f
00000220: 6ade fc3f b334 403f 1216 d93f 2d55 1a40
00000230: 422e 6d3f a821 4d3f 84ae 0a3f a5a2 dd3d
00000240: 3b83 bbbf 5d1e f3bf a51b 3bbf 1b90 92bf
00000250: ec9a e9bf 861a 86bf 2cab 3b3e b422 72be
00000260: e5c1 01bf 5dda febe d8f0 89bf 26e6 20bf
00000270: 9cfa 80bf e475 bcbf ab72 36bf 1b8a c1be
00000280: 5543 0dbf 28cf ddbe 736e 86bf 4fbc 76bf
00000290: 99d6 42bf 29a7 58bf 45b9 25bf 627d 11be
000002a0: a763 01be 8716 ff3e e4fd 1f3f 2268 b13f
000002b0: c5d2 903f 056d d83d 4a6f d33f d9bd d63f
000002c0: bf2c d2be 450d 84ba db78 ea3d e89a bcbe
000002d0: 05a2 ac3f c2b0 713f 890f cb3d 8744 0a40
000002e0: 8016 c73f b65c 18be ab13 603f d955 0b3f
000002f0: 8dca 4cbe 4ae9 f0be 8867 6cbf da91 4bbf
00000300: 3a61 86bf 8996 06c0 ad22 acbf 0d73 8fbf
00000310: fb19 bfbf ed48 30bf cfd7 9b3f ba7c da3f
00000320: cd45 343f 329f a23f f756 f83f 066f 733f
00000330: ddf9 f83e c4e9 5b3f c400 bc3e f406 71bf
00000340: fdb5 8bbf 2368 edbd de49 7dbf 99c3 abbf
00000350: 4280 9abe c26a 04bd 8a78 42bd 5a3c ffbd
00000360: dc66 0f3f fca5 e03f be1d f53f e5fc 023f
00000370: 2eeb eb3f 51cf eb3f cabc 58bd e131 fc3e
00000380: eb56 193d 9f48 abbf b943 fcbf bb86 b3bf
00000390: b13f 6dbf 6cd6 5abf 62d7 95bf 6315 59bf
000003a0: 5795 a9bf 8dc6 9fbf 63ff 1240 819b 0040
000003b0: f5c8 01bf 3a3a 5140 ac4d 3640 55a4 f23e
000003c0: c5ad 3740 e491 0040 b294 0a3f c790 7bbf
000003d0: 9730 0cbf 664c 1d3e f256 b2bf 4af5 42bf
000003e0: 6edd d03e b764 82bf 55a1 21bd c467 073f

model.backbone1.4.convs.0.bias f4 [28]
-0.010093247 0.0026333197 -0.0067739487 -0.008325894 0.032539412 0.0043168934 0.016150992 0.006439679
0.003844956 0.0028876967 0.0040358403 -0.0018042739 0.012277428 -0.007625508 0.0029448103 -0.018110462
-0.0092044175 0.004762516 -0.00901448 -0.012975182 -0.010871139 0.009110947 -0.0009678427 0.0001238453
0.007249552 -0.0061043133 0.0059783044 -7.469018e-05
00000000: 255e 25bc c693 2c3b 00f8 ddbb 5569 08bc
00000010: 0c48 053d ba74 8d3b 164f 843c f103 d33b
00000020: a8fb 7b3b 833f 3d3b 153f 843b 637d ecba
00000030: 4427 493c 66df f9bb b8fd 403b 645c 94bc
00000040: 20ce 16bc e10e 9c3b 78b1 13bc dc95 54bc
00000050: dd1c 32bc 1546 153c d3b6 7dba 78dc 0139
00000060: a68d ed3b b106 c8bb a7e5 c33b fca2 9cb8

model.backbone1.4.convs.1.weight f4 [32, 28, 1, 1]
-0.14430036 0.00011734945 0.14987579 -0.11752921 -0.01069983 0.24335013 -0.0026023167 0.15857571
-0.13055304 -0.06590982 0.10836615 0.011721645 0.008334146 -0.027439203 0.0027068334 -0.05722244
0.07502711 0.053148184 0.20717163 0.12064638 -0.051827528 0.023483539 -0.027344214 -0.017240139
0.10424331 0.04277727 -0.102108195 -0.11361097 0.052633118 -0.028570583 -0.09866594 -0.094690956
-0.031050634 -0.056252923 0.08073668 -0.030402038 0.11653897 0.0980057 0.061810207 -0.017294494
0.031259514 -0.033863153 -0.045738235 -0.03255535 0.17237933 -0.014657912 0.014881104 0.09052579
0.010090303 0.08239391 -0.0019900294 0.12134089 0.0556455 0.024589866 -0.2008118 -0.12428055
0.045242716 -0.050599888 0.017846385 0.16391173 -0.16172747 -0.012513568 -0.053985562 -0.0014872245
0.008340121 -0.04535942 -0.051044483 -0.027198816 -0.12099608 0.061754216 -0.103190295 0.086555704
-0.068013445 0.03596976 0.04649962 -0.01439584 0.102821276 0.04276995 0.0018759869 -0.028384876
-0.08381322 0.026383776 -0.042730123 0.00046366558 0.007989291 -0.015950808 -0.044190828 0.05694584
-0.023416838 -0.0040248907 -0.028567737 -0.010029563 0.018372301 -0.08386452 0.00954333 0.008006259
-0.1063363 -0.069020934 -0.026175547 -0.0018339291 0.058370166 0.010320061 0.018678052 -0.021281743
-0.07491281 0.006578906 -0.03170069 0.07811989 -0.039200496 0.0007367561 -0.15921852 -0.04138814
0.01837213 -0.002624104 -0.009040953 -0.00048697845 0.0636956 -0.020003552 -0.018151427 -0.042066965
0.04129305 -0.0020646588 -0.03637839 0.048197877 0.13306507 0.028317725 0.020164665 0.049938746
-0.043715276 -0.05942089 0.016312458 -0.20014967 -0.1208078 -0.0243842 0.0039988453 0.009711675
-0.15185179 -0.041622333 0.07935107 -0.044068858 0.12291546 0.13190767 -0.040006407 0.01912919
0.058802564 0.23090905 -0.042397343 0.09026607 -0.37881067 -0.13960393 -0.012260361 -0.029477837
0.029332608 0.045863606 -0.1545635 -0.08330657 0.049245764 0.10571174 0.009822173 -0.014998232
-0.01925224 -0.08073415 0.11801954 -0.02475427 -0.013995309 -0.022139875 0.046145093 -0.02444008
-0.38204607 -0.16062987 0.027880207 0.02813122 0.056147832 0.06632857 -0.05264766 -0.037157036
0.13173129 0.05685521 0.10940092 0.04182425 0.007350465 0.0050658286 -0.04279368 -0.09338109
-0.07414449 -0.13613552 0.029103613 0.027891707 0.05702245 -0.048615 -0.15742558 -0.07623766
-0.079727076 0.10237448 -0.07601352 -0.08673062 0.026105858 -0.059398416 0.066792145 -0.08857313
0.03967071 0.019735556 0.038446896 -0.004437433 -0.036669835 -0.013902645 0.074375145 -0.07729883
-0.011194044 -0.13195458 -0.06604732 -0.11129346 -0.013690858 0.017528085 0.09046058 0.14818424
-0.14638256 0.10092145 0.06641622 -0.0017813565 -0.050746754 -0.0024337491 -0.15978846 0.03739111
0.11717829 0.12359644 -0.044351343 -0.1326313 0.03013762 -0.051804565 -0.06184301 -0.12400079
-0.0035776203 -0.053145178 0.069362335 -0.01179916 0.09193311 -0.04024008 -0.095141105 -0.10265057
0.09259199 -0.05665139 -0.068677455 0.016136473 0.034313917 -0.031001057 0.13317852 0.07290932
-0.026508283 0.08736059 -0.07113144 -0.010782037 0.05037231 0.037241124 0.009860646 -0.04436734
00000000: 79c3 13be 8219 f638 0a79 193e 28b3 f0bd
00000010: 574e 2fbc c730 793e a18b 2abb ac61 223e
00000020: b2af 05be bafb 86bd 12ef dd3d 240c 403c
00000030: f18b 083c 2ec8 e0bc 2165 313b 1462 6abd
00000040: d0a7 993d e9b1 593d cd24 543e 7315 f73d
00000050: 1a49 54bd 8d60 c03c f900 e0bc 313b 8dbc
00000060: 847d d53d 3837 2f3d 1a1e d1bd deac e8bd
00000070: d395 573d db0c eabc 5e11 cabd 55ed c1bd
00000080: e65d febc 7769 66bd 4659 a53d b20d f9bc
00000090: fcab ee3d 36b7 c83d b32c 7d3d 2fad 8dbc
000000a0: fa09 003d 17b4 0abd 0458 3bbd c258 05bd
000000b0: 3584 303e bd27 70bc e0cf 733c 9665 b93d
000000c0: cc51 253c 23be a83d 276b 02bb 9381 f83d
000000d0: 89ec 633d b070 c93c 9ca1 4dbe cd86 febd
000000e0: 6d50 393d d441 4fbd 9532 923c 7ad8 273e
000000f0: e39b 25be b505 4dbc f71f 5dbd f9ee c2ba
00000100: 01a5 083c cdca 39bd 0514 51bd 0dd0 debc
00000110: cbcc f7bd fdf1 7c3d 6f55 d3bd 1e44 b13d
00000120: a24a 8bbd 0755 133d 6376 3e3d 87dc 6bbc
00000130: f693 d23d 8b2f 2f3d ade3 f53a 6687 e8bc
00000140: 44a6 abbd ca22 d83c c805 2fbd 2418 f339
00000150: 84e5 023c 45ab 82bc 7101 35bd 0b40 693d
00000160: abd4 bfbc 3be3 83bb e306 eabc 0953 24bc
00000170: 8281 963c 29c1 abbd a15b 1c3c af2c 033c
00000180: d9c6 d9bd d95a 8dbd 1a6e d6bc 7360 f0ba
00000190: 8e15 6f3d 7915 293c b702 993c 0d57 aebc
000001a0: e36b 99bd dd93 d73b 95d8 01bd 52fd 9f3d
000001b0: b390 20bd dd22 413a 2e0a 23be 9c86 29bd
000001c0: 2681 963c 29f9 2bbb 8120 14bc 2451 ffb9
000001d0: d772 823d 7dde a3bc 4db2 94bc 694e 2cbd
000001e0: e722 293d 3a4f 07bb 8201 15bd 236b 453d
000001f0: 3642 083e 93fa e73c 5e30 a53c 928c 4c3d
00000200: ca0e 33bd 5263 73bd b4a1 853c 09f4 4cbe
00000210: 146a f7bd 60c1 c7bc bf08 833b b81d 1f3c
00000220: 097f 1bbe 2e7c 2abd d082 a23d 8c81 34bd
00000230: 1abb fb3d ce12 073e c2dd 23bd d2b4 9c3c
00000240: f5da 703d 6c73 6c3e d6a8 2dbd 6bdd b83d
00000250: 79f3 c1be 55f4 0ebe aedf 48bc 817b f1bc
00000260: f04a f03c 7adb 3b3d e545 1ebe a39c aabd
00000270: edb5 493d 667f d83d 2eed 203c 25bb 75bc
00000280: e0b6 9dbc f257 a5bd 3bb4 f13d 78c9 cabc
00000290: 954c 65bc af5e b5bc a302 3d3d 9036 c8bc
000002a0: 8b9b c3be 287c 24be 0865 e43c 7273 e63c
000002b0: 45fb 653d 46d7 873d 13a5 57bd fa31 18bd
000002c0: 91e4 063e 02e1 683d 970d e03d e84f 2b3d
000002d0: 2bdc f03b 40ff a53b 6d48 2fbd 963e bfbd
000002e0: 11d9 97bd 1c67 0bbe b36a ee3c 267d e43c
000002f0: 5f90 693d 8620 47bd 2c34 21be 7e22 9cbd
00000300: f347 a3bd b6a9 d13d faac 9bbd d39f b1bd
00000310: f4db d53c c14b 73bd 52ca 883d d465 b5bd
00000320: c17d 223d 76ac a13c 7e7a 1d3d e367 91bb
00000330: 1c33 16bd ebc7 63bc ff51 983d d94e 9ebd
00000340: 3967 37bc 1a1f 07be d143 87bd d3ed e3bd
00000350: 9f4f 60bc 0f97 8f3c 6643 b93d 9cbd 173e
00000360: 4fe5 15be e8af ce3d 3a05 883d 687c e9ba
00000370: d4db 4fbd 897f 1fbb 969f 23be 6c27 193d
00000380: 2cfb ef3d 2120 fd3d c1a9 35bd 80d0 07be
00000390: 2ce3 f63c 0631 54bd 194f 7dbd 20f4 fdbd
000003a0: 8276 6abb c2ae 59bd d70d 8e3d 4451 41bc
000003b0: 6d47 bc3d c8d2 24bd 57d9 c2bd 763a d2bd
000003c0: dfa0 bd3d 4a0b 68bd c4a6 8cbd a330 843c
000003d0: c08c 0c3d eef5 fdbc f35f 083e 7b51 953d
000003e0: e627 d9bc 1cea b23d 5cad 91bd 24a7 30bc
000003f0: 3253 4e3d 268a 183d 8c8e 213c 87ba 35bd

model.backbone1.4.convs.1.bias f4 [32]
2.278454 -0.6394304 -1.3332689 1.0642488 0.54430914 1.6440302 1.6439553 -0.55009145
0.68779665 -0.6789674 -0.82661986 3.2942255 0.11094395 1.0574439 1.254761 0.6058727
1.1524129 0.46640807 0.4799511 1.0828648 1.7344884 2.9792962 -1.6061763 -0.22814271
0.11776365 1.0769392 -1.9532845 0.1122532 0.682232 0.64492816 0.44022217 0.493611
00000000: 31d2 1140 b6b1 23bf 8ea8 aabf 4e39 883f
00000010: d857 0b3f 956f d23f 216d d23f cbd2 0cbf
00000020: 7113 303f cfd0 2dbf 5c9d 53bf 97d4 5240
00000030: 9536 e33d 525a 873f 029c a03f 791a 1b3f
00000040: 4482 933f 0acd ee3e 27bc f53e 509b 8a3f
00000050: b703 de3f caac 3e40 2f97 cdbf 3e9e 69be
00000060: 122e f13d 25d9 893f 3a05 fabf 01e5 e53d
00000070: c2a6 2e3f 031a 253f cd64 e13e 95ba fc3e
